data.pth (torch, 20119 bytes, 6 tensors)

l1.weight f4 [16, 158]
-0.03794437 0.26337466 -0.8968442 0.677107 2.0669363 0.5980185 -0.1180869 -0.13952142
-0.5921695 -0.50720644 -0.9384799 1.300809 0.0898981 0.7507968 0.93001544 -0.82562494
1.0487708 0.99392277 0.55918205 -0.4158047 -0.83437246 1.0091987 0.31832045 -0.067317456
1.0757536 -1.159711 0.9645276 0.7769499 -0.73499787 -0.67988575 -0.92466766 0.5405891
-0.7602106 -0.4832822 -0.92196554 1.0027119 -0.77264637 0.7937897 -0.26324955 -0.7433598
-0.5726683 1.2063447 1.0699911 1.66535 1.5808065 1.3358119 2.0194802 -0.33873805
-0.43083462 0.85739076 1.0807745 0.88858795 0.9856921 0.88111186 0.022098452 1.7328337
0.67359537 0.89641404 -1.1973925 -1.2620606 0.44245312 -0.7299438 -0.15702316 -0.39114535
-0.9049794 0.41733977 0.1642983 -0.18880275 0.2737895 0.85166305 0.25517213 0.5737567
0.1935477 0.32781145 0.0055391374 -0.31667632 -0.96079296 -0.29902923 1.1538957 0.0019005958
-0.92477095 0.9732394 0.188569 0.3981485 -0.22656281 -0.414063 -0.10445577 -0.74678695
-0.41469306 -0.17538589 -0.4140271 -0.41440162 -0.48159626 -0.48208165 -0.13680962 -0.5320033
-0.4149558 0.38195258 0.4738284 0.16889101 -0.1942058 -0.6346684 2.3182914 0.319117
1.0251372 0.31188157 0.38009167 -0.14140172 -0.058559287 0.15611456 -0.2181487 -0.43177223
1.5378276 0.43313304 -0.2164535 0.49272546 -0.6149199 0.45695752 0.3099705 -0.4695635
0.02800786 1.2381244 1.2774321 0.880294 0.104213245 -0.59335923 -0.1585564 0.8825448
-0.61406386 -0.3699709 -0.27666137 0.005949613 -0.08855011 0.48999047 0.3961557 -0.78743064
1.1925362 0.9817164 0.61710995 -0.13477118 1.0138915 0.24676026 -0.31324735 0.7222874
0.26463628 0.012870394 -0.41433537 -0.20420267 -0.042603757 -0.1048299 0.47646087 0.6512503
0.62330216 1.1515567 0.6823216 -0.010838495 0.2603426 -0.10380193 0.3013613 0.040066756
-0.68287003 0.387733 1.6535779 0.3859197 0.24375944 0.20693043 0.64117986 0.44531828
1.1665131 0.16733843 0.0011480746 -0.24803527 -0.5536617 0.38269505 -0.61251915 -1.0852423
0.08661026 0.71143615 -1.0721496 0.6281258 0.31192803 0.4030634 1.0742346 -0.7352947
0.62543774 -0.17889336 -0.7233122 0.6455124 -0.71301484 0.77507466 0.25187412 1.3313038
-0.19895548 0.64244777 0.85634613 0.75082517 -0.70494497 1.0635666 0.651053 1.2143688
1.0785177 -0.732247 -0.31393296 -0.7303371 0.5390657 -0.72260326 1.026855 -0.29639447
-0.73072594 -0.6944856 1.0656455 0.91690665 0.7410867 -0.6930589 -0.43802106 -0.61174047
1.3241264 -0.718561 -0.18301263 -0.12989192 1.3120934 0.90751916 -0.5309968 -0.012006879
-0.92249924 0.35798305 -0.6786477 -0.718129 0.05469617 0.25567946 -0.14637956 0.3839729
-0.0091316085 1.0857131 -0.2864428 -0.38808802 1.2497307 0.40506876 1.3171281 -0.8235675
-0.111342065 0.2804204 0.33137792 0.8051356 0.74207264 0.794021 0.5769965 0.30512312
0.53158104 0.61482793 -0.624884 -0.66631716 0.20678672 0.6932804 0.2545275 0.10481035
00000000: 8e6b 1bbd 0bd9 863e 9597 65bf e256 2d3f
00000010: af48 0440 be17 193f 8bd7 f1bd b4de 0ebe
00000020: 6c98 17bf 48d8 01bf 3840 70bf e980 a63f
00000030: 7f1c b83d 3834 403f 7e15 6e3f 285c 53bf
00000040: 1f3e 863f b971 7e3f 8e26 0f3f 5be4 d4be
00000050: 6f99 55bf 6c2d 813f e6fa a23e bcdd 89bd
00000060: 4bb2 893f 6971 94bf 48eb 763f 30e6 463f
00000070: d228 3cbf fe0c 2ebf 05b7 6cbf 0c64 0a3f
00000080: 299d 42bf c470 f7be ef05 6cbf dd58 803f
00000090: 27cc 45bf cd35 4b3f a5c8 86be d44c 3ebf
000000a0: 649a 12bf 8169 9a3f 78f5 883f 302a d53f
000000b0: de57 ca3f e2fb aa3f 2a3f 0140 136f adbe
000000c0: 5b96 dcbe f67d 5b3f d256 8a3f 807a 633f
000000d0: 5156 7c3f 8c90 613f d007 b53c 7fcd dd3f
000000e0: bf70 2c3f 647b 653f 2844 99bf 348b a1bf
000000f0: 3789 e23e 99dd 3abf aeca 20be 3444 c8be
00000100: bbac 67bf 8fad d53e d03d 283e 8255 41be
00000110: 232e 8c3e 9706 5a3f eca5 823e b8e1 123f
00000120: 5e31 463e e7d6 a73e a781 b53b 6623 a2be
00000130: 87f6 75bf 5c1a 99be dbb2 933f 6a1d f93a
00000140: cabd 6cbf 3826 793f 3b18 413e 1fda cb3e
00000150: 1500 68be 1100 d4be e8ec d5bd 6e2d 3fbf
00000160: a652 d4be 5c98 33be 5cfb d3be 732c d4be
00000170: c993 f6be 68d3 f6be d217 0cbe 5e31 08bf
00000180: 1675 d4be 4a8f c33e a399 f23e c4f1 2c3e
00000190: e3dd 46be a179 22bf e35e 1440 4e63 a33e
000001a0: b237 833f f1ae 9f3e 609b c23e 9dcb 10be
000001b0: dddb 6fbd 7fdc 1f3e 5f62 5fbe 4011 ddbe
000001c0: 89d7 c43f 9dc3 dd3e fca5 5dbe 8346 fc3e
000001d0: 646b 1dbf 56f6 e93e 74b4 9e3e a16a f0be
000001e0: bd70 e53c dc7a 9e3f e582 a33f f35a 613f
000001f0: c16d d53d 64e6 17bf 9c5c 22be 75ee 613f
00000200: 4a33 1dbf d36c bdbe 8fa6 8dbe f9f4 c23b
00000210: c359 b5bd 08e0 fa3e ebd4 ca3e 0e95 49bf
00000220: 07a5 983f c451 7b3f ebfa 1d3f 7501 0abe
00000230: 32c7 813f b9ae 7c3e f561 a0be d4e7 383f
00000240: 687e 873e 58de 523c c423 d4be 811a 51be
00000250: 4781 2ebd 0fb1 d6bd aef2 f33e 57b8 263f
00000260: bb90 1f3f 3666 933f a1ac 2e3f f193 31bc
00000270: a04b 853e 1b96 d4bd 074c 9a3e 0a1d 243d
00000280: 92d0 2ebf f184 c63e 71a8 d33f 4497 c53e
00000290: 139c 793e 92e5 533e 5d24 243f c200 e43e
000002a0: 4d50 953f c45a 2b3e fe7a 963a f5fc 7dbe
000002b0: c6bc 0dbf 9bf0 c33e 0ece 1cbf 38e9 8abf
000002c0: b860 b13d ae20 363f 333c 89bf dacc 203f
000002d0: 08b5 9f3e 535e ce3e 8580 893f 463c 3cbf
000002e0: b01c 203f d22f 37be fd2a 39bf 4d40 253f
000002f0: 2488 36bf 4b6b 463f a5f5 803e 2a68 aa3f
00000300: fcba 4bbe 7577 243f 8039 5b3f 1436 403f
00000310: 4677 34bf f322 883f 69ab 263f 7070 9b3f
00000320: de0c 8a3f 8a74 3bbf d2bb a0be 5ff7 3abf
00000330: 3600 0a3f 87fc 38bf fc6f 833f 04c1 97be
00000340: db10 3bbf cfc9 31bf 1267 883f 65ba 6a3f
00000350: dcb7 3d3f 4f6c 31bf 4c44 e0be 069b 1cbf
00000360: f97c a93f 9df3 37bf aa67 3bbe 6302 05be
00000370: adf2 a73f 2d53 683f 68ef 07bf 80b8 44bc
00000380: e928 6cbf 8e49 b73e dbbb 2dbf 4dd7 37bf
00000390: 1709 603d 6be8 823e 86e4 15be 1998 c43e
000003a0: be9c 15bc a6f8 8a3f a1a8 92be 79b3 c6be
000003b0: 2df7 9f3f 2c65 cf3e a797 a83f 52d5 52bf
000003c0: 4f07 e4bd 4393 8f3e 5eaa a93e 5e1d 4e3f
000003d0: 79f8 3d3f f644 4b3f 0bb6 133f 1939 9c3e
000003e0: b215 083f 5d65 1d3f 66f8 1fbf c393 2abf
000003f0: e6bf 533e d37a 313f 6e51 823e cfa6 d63d

l1.bias f4 [16]
0.37447414 0.43676493 0.46568465 0.50850564 0.39592153 0.33735597 0.44678488 0.32685497
0.22975829 0.53508145 0.40281296 0.4923875 0.35559708 0.29413316 0.3718971 0.6428754
00000000: 13bb bf3e a79f df3e 386e ee3e 6d2d 023f
00000010: 3ab6 ca3e ecb9 ac3e fdc0 e43e 8959 a73e
00000020: c245 6b3e 19fb 083f 803d ce3e 371a fc3e
00000030: d210 b63e 9f98 963e 4c69 be3e 7b93 243f

l2.weight f4 [16, 16]
-0.25728872 -1.2227695 -0.5113386 1.2233374 0.7400974 1.4900968 -0.69006974 0.71272105
-0.32013842 0.9860245 -0.19952647 0.60557723 0.05341194 0.33766133 -0.59198177 1.0933231
0.5351922 0.6743624 -0.6313444 0.9032898 -0.16796537 0.12297326 -0.24214825 -1.0453376
-1.3928326 1.3584032 1.1637902 1.1961896 -0.0082129985 0.09140921 1.4443048 0.61649305
0.0028930018 -1.6762669 0.43489856 0.4628829 0.76388997 -0.5725797 0.09526761 -0.06080184
1.5162828 -1.1760203 0.15761092 0.26827344 1.1738056 -0.03244726 -0.20548053 1.2923313
1.0589484 0.25074995 0.17717782 -0.29716834 1.1280527 0.5428637 0.4769622 0.6158048
0.294741 -0.2785012 -0.77356625 -1.3000716 0.5526627 0.85398203 -0.9192083 0.64445645
1.0807576 -1.0465819 0.89462876 1.1608073 -1.0359942 -0.20996372 -1.1083399 1.0173577
0.5852462 0.48574606 1.1674247 -0.117337935 -1.1690248 1.1873103 1.1912642 -0.05367581
-0.11137047 0.071949705 -0.22885294 -0.14455703 -0.290488 -0.102681324 0.046442732 -0.2524205
-0.09756674 -0.28733775 0.14114682 -0.058004346 0.118660234 0.18994795 -0.12152603 0.14061028
0.077206016 -0.52388424 0.7515811 0.35024163 -0.57280535 -0.39388865 0.012709157 0.2278118
0.70699716 -0.55417717 -0.1524148 -0.2948576 0.03293355 0.23247129 0.14986278 -0.055821918
-0.4681265 -0.0857531 0.7423553 -0.22790468 1.3579992 0.8633667 -0.9597931 -0.64943933
-0.3425692 0.41484556 0.68153495 1.454713 0.19285354 -0.52662975 0.14289501 0.7076196
0.49731246 1.3048438 1.3394172 0.4052757 -1.1630229 0.29459566 1.2338015 -0.4553372
-0.3847021 0.07422202 -0.40994364 1.0163028 -0.2835942 -0.004504301 -0.45351613 1.0427454
0.16333038 -0.49750546 0.1197913 -0.04405783 0.25636506 0.6851507 -1.0081413 1.2513136
0.23072019 1.0405718 0.6009691 -0.31426933 0.14519122 0.64969903 -0.7330242 0.24477923
-0.44352704 0.48303488 -0.014683234 0.80249125 0.43192923 -0.8157335 1.4432054 0.6025525
-0.16214313 1.5569888 0.9091772 1.2116479 1.3419715 -0.3828544 -1.2233146 0.5711106
0.43271965 -0.41248983 -0.8268524 1.0203153 1.0376134 0.34616548 0.23288763 -0.15147522
-0.39648077 -0.09488731 0.6430042 -0.5846528 0.6909544 0.7109599 1.3777821 0.07601227
-0.80522084 1.4569778 0.9976342 -0.12643814 -0.13951825 0.8741613 0.55672634 0.32667747
0.10835382 0.76419383 0.44477472 1.3442361 0.7951329 -1.080196 0.67318934 -0.10353361
-0.14881946 -0.1643779 -0.026972504 -0.10536267 -0.1774907 0.1957951 0.18211885 0.07447501
0.11655669 -0.11646424 0.17943628 -0.098766916 -0.06867172 0.0035593198 -0.25456536 0.044012945
-0.040005006 1.0639057 1.3604228 0.9850753 0.0058525125 1.6870828 -0.35901228 0.6506141
-0.45431864 -0.7318298 -1.0856353 0.20224583 -0.897556 -0.12749846 -0.44639194 0.9008478
-0.13230535 0.26147586 0.450708 -0.9060008 1.3153509 0.4424499 -1.086084 0.89123255
0.755875 0.53566676 0.7829243 0.19239186 0.6132337 0.070920005 -0.21390374 -0.4366358
00000000: 59bb 83be b683 9cbf 16e7 02bf 5296 9c3f
00000010: 0677 3d3f 7ebb be3f 69a8 30bf e374 363f
00000020: 2fe9 a3be 1a6c 7c3f ab50 4cbe 1c07 1b3f
00000030: 7ac6 5a3d f2e1 ac3e 1e8c 17bf 03f2 8b3f
00000040: 5b02 093f 04a3 2c3f c99f 21bf 003e 673f
00000050: 1dff 2bbe 68d9 fb3d b6f5 77be 9fcd 85bf
00000060: 5748 b2bf 28e0 ad3f 14f7 943f be1c 993f
00000070: d08f 06bc c034 bb3d fbde b83f 7dd2 1d3f
00000080: 8498 3d3b ea8f d6bf 06ab de3e fdfe ec3e
00000090: 4b8e 433f 9594 12bf aa1b c33d 5a0b 79bd
000000a0: 8e15 c23f d587 96bf c264 213e 235b 893e
000000b0: 433f 963f 6be7 04bd 7d69 52be 1d6b a53f
000000c0: 9f8b 873f 4c62 803e 1a6e 353e 7326 98be
000000d0: 0864 903f 1ef9 0a3f 6434 f43e 62a5 1d3f
000000e0: 4be8 963e b697 8ebe 7008 46bf bf68 a6bf
000000f0: 4d7b 0d3f 919e 5a3f 3c51 6bbf 19fb 243f
00000100: 4456 8a3f 65f6 85bf 6406 653f 5595 943f
00000110: 759b 84bf bb00 57be 15de 8dbf c738 823f
00000120: b2d2 153f b5b3 f83e 2c6e 953f df4e f0bd
00000130: 9ba2 95bf c9f9 973f 587b 983f 2bdb 5bbd
00000140: 3316 e4bd 5e5a 933d 6d58 6abe c206 14be
00000150: d8ba 94be 964a d2bd bc3a 3e3d 433d 81be
00000160: 12d1 c7bd ef1d 93be cb88 103e f795 6dbd
00000170: 2304 f33d b781 423e a4e2 f8bd 24fc 0f3e
00000180: 301e 9e3d 471d 06bf 9e67 403f df52 b33e
00000190: 5fa3 12bf c6ab c9be 113a 503c 7f47 693e
000001a0: c4fd 343f 8ede 0dbf a012 1cbe 93f7 96be
000001b0: 55e5 063d f40c 6e3e a175 193e 86a5 64bd
000001c0: 47ae efbe 529f afbd ff0a 3e3f d85f 69be
000001d0: ebd2 ad3f 9a05 5d3f 00b5 75bf a841 26bf
000001e0: 3b65 afbe a366 d43e 1379 2e3f 0934 ba3f
000001f0: 667b 453e 35d1 06bf 1253 123e 8f26 353f
00000200: bd9f fe3e 1f05 a73f 0672 ab3f 4c80 cf3e
00000210: efdd 94bf 3ed5 963e 35ed 9d3f f521 e9be
00000220: acf7 c4be b701 983d 22e4 d1be 3616 823f
00000230: 4233 91be d198 93bb 4433 e8be ae78 853f
00000240: 1440 273e 09b9 febe 2455 f53d fc75 34bd
00000250: 4842 833e 0966 2f3f c60a 81bf 0b2b a03f
00000260: ea41 6c3e 7531 853f 1cd9 193f e9e7 a0be
00000270: 02ad 143e ad52 263f 79a7 3bbf 68a7 7a3e
00000280: fa15 e3be 5950 f73e f291 70bc 1170 4d3f
00000290: d425 dd3e e9d3 50bf f4ba b83f e140 1a3f
000002a0: d908 26be 694b c73f d6bf 683f 4717 9b3f
000002b0: b9c5 ab3f 7e05 c4be 9395 9cbf 4e34 123f
000002c0: 6e8d dd3e de31 d3be 99ac 53bf b199 823f
000002d0: 84d0 843f 9a3c b13e 187a 6e3e 521c 1bbe
000002e0: 87ff cabe 4754 c2bd ec9b 243f ceab 15bf
000002f0: 63e2 303f 7801 363f 2a5b b03f 52ac 9b3d
00000300: f422 4ebf 407e ba3f f464 7f3f 0079 01be
00000310: dfdd 0ebe 09c9 5f3f 9e85 0e3f 4542 a73e
00000320: 9ce8 dd3d 35a2 433f 83b9 e33e ee0f ac3f
00000330: d48d 4b3f dd43 8abf 2356 2c3f 6e09 d4bd
00000340: 2164 18be ae52 28be 71f5 dcbc 62c8 d7bd
00000350: 1fc0 35be 837e 483e 5d7d 3a3e 5b86 983d
00000360: 46b5 ee3d ce84 eebd 25be 373e 4f46 cabd
00000370: c2a3 8cbd 7a43 693b 6456 82be eb46 343d
00000380: 4adc 23bd 102e 883f 5622 ae3f e52d 7c3f
00000390: 6fc6 bf3b 54f2 d73f 75d0 b7be a58e 263f
000003a0: 749c e8be 3359 3bbf 19f6 8abf 8819 4f3e
000003b0: 3bc6 65bf f58e 02be 7c8d e4be f69d 663f
000003c0: 0e7b 07be 2ae0 853e 33c3 e63e abef 67bf
000003d0: 6b5d a83f cb88 e23e cd04 8bbf d127 643f
000003e0: 0681 413f 7521 093f ba6d 483f 5f02 453e
000003f0: e2fc 1c3f 823e 913d 9509 5bbe ba8e dfbe

l2.bias f4 [16]
-0.19556323 0.4489145 0.35503998 0.40906683 0.3707032 -0.08842464 -0.0049445997 0.31603613
0.08134077 -0.15831922 0.16080147 0.2992915 0.25172228 -0.26263842 0.16371135 0.012020565
00000000: ba41 48be 1fd8 e53e cdc7 b53e 3571 d13e
00000010: cfcc bd3e fa17 b5bd 4f06 a2bb 7dcf a13e
00000020: fd95 a63d 6f1e 22be 24a9 243e bc3c 993e
00000030: bee1 803e 8b78 86be f3a3 273e e7f1 443c

l3.weight f4 [47, 16]
0.10321143 -1.4260925 -0.023643754 0.27442956 0.30192316 0.09553278 0.1599229 -1.586282
-0.061021544 0.054218262 -2.8312588 -0.24129373 -0.48069832 -0.22451676 0.40230876 -0.16251698
0.28647596 -0.91910136 0.6211105 0.5380383 -0.5284601 -0.2324187 -3.5657895 0.26072803
-1.0550523 0.11454697 0.10691907 -0.014799711 -1.4731224 -0.15698056 -4.6624255 0.006293211
-1.6885052 -0.15745687 0.4339688 0.40034315 -0.35507056 -0.14445949 -0.40850928 -0.45256957
-0.4219127 -4.60793 0.3600415 0.43455866 -0.439307 0.041160252 -0.18431804 -1.35051
-3.135276 0.41456562 -0.1100504 0.20983136 0.16036765 0.14623547 0.11798902 -1.7904375
0.103266306 -0.8138384 -0.109602526 0.18759936 -0.8830889 -0.15314747 -0.251108 -4.3353457
-4.409991 0.35361594 -0.25179544 -0.021139419 0.4975704 0.060863234 0.023017814 -0.8459787
-0.20173818 0.083660774 -1.0928508 0.29689783 -1.0377373 0.18680619 -1.0074822 0.08509397
-4.605757 0.5425087 -1.0568463 -0.046599276 0.42133927 0.14949559 -0.29796687 0.07916392
-0.22723815 -0.1294062 -1.1564612 0.39291725 -0.54968137 0.08478374 -1.3602043 0.0042217104
-2.6934237 -0.35169148 1.0287191 -1.2314613 0.2346933 0.03705743 1.4391644 0.10134032
-0.875242 -3.2462277 0.041322842 0.101400614 0.41725105 0.094236255 -3.3001032 -0.40430236
-3.2551298 0.020492576 -0.6406437 -2.0603063 0.27433476 0.044170722 0.2066719 0.5481225
-0.28752178 -2.063504 0.0071711084 -0.444989 0.43170765 0.046336148 0.049735397 -0.16462754
-0.81034034 -1.0538045 0.71500325 -1.2280024 0.25753143 -0.22919028 1.3805642 0.24384186
-0.29318514 -0.756254 -1.0916075 -1.1655524 0.18755753 -0.17596395 -0.018282786 0.14442804
-0.814321 -0.45828894 -3.5665298 0.20956081 0.13669425 0.044499945 -1.5067691 -3.4560792
-0.91778064 0.6245523 0.9564945 -0.22688444 0.3175147 -0.19531049 -0.47041848 0.7090611
0.10187423 0.2398525 -2.6240802 -2.014 -0.013974134 -0.08810574 -1.9877255 0.086988695
-0.043456577 -3.16185 0.17712408 -0.018178301 0.1811779 -0.2549114 0.11645862 -2.234505
-0.9854471 -0.72516584 -2.117828 -0.1453861 -0.48119515 -0.08092641 -0.8930612 0.01336574
-0.2619561 -0.9338444 -0.28253517 -0.024924167 0.6015222 0.17797543 0.67839664 0.24821804
-4.4511714 -3.1664639 0.8447102 -0.06404314 -1.1685816 0.17091276 -0.43752283 -0.3054376
-0.57723325 -0.96750265 0.7425596 -0.25774762 0.6106744 -0.22547731 -1.2619145 0.37459552
-2.5671935 -0.08146217 -0.54182637 0.12482131 -0.41633403 -0.024515692 -0.63219297 0.5324125
0.55190337 -2.105813 -0.48194516 -2.3987374 -0.184436 -0.17764501 0.6544568 -1.6893798
-1.4985198 -0.5684063 0.6471565 -0.5492242 -1.1095945 0.20606045 -3.0813887 0.7395919
-0.0284727 -1.2472581 -0.0025188194 -0.72290504 0.34954342 -0.080054805 -0.27177668 0.21705979
-0.17309222 -0.06259643 -2.5832644 -0.62288254 0.043590367 -0.015200189 0.30753267 0.17537394
0.29154828 -0.6765277 -2.4995146 -0.67501014 -0.20254593 0.083906546 0.8993512 -1.4425567
00000000: 8460 d33d 338a b6bf 8cb0 c1bc 0882 8c3e
00000010: ac95 9a3e b1a6 c33d d4c2 233e 4a0b cbbf
00000020: baf1 79bd f813 5e3d 5833 35c0 b415 77be
00000030: 171e f6be b9e7 65be 6afb cd3e da6a 26be
00000040: faac 923e 3a4a 6bbf 1901 1f3f e1bc 093f
00000050: 2949 07bf 2bff 6dbe e535 64c0 257e 853e
00000060: f40b 87bf 9a97 ea3d 63f8 da3d 7d7a 72bc
00000070: 468f bcbf 83bf 20be 9732 95c0 4837 ce3b
00000080: f020 d8bf 603c 21be 2931 de3e c7f9 cc3e
00000090: cfcb b5be 30ed 13be 2128 d1be 33b7 e7be
000000a0: f104 d8be 2a74 93c0 5c57 b83e 797e de3e
000000b0: d9ec e0be a797 283d debd 3cbe 83dd acbf
000000c0: 5da8 48c0 f241 d43e 1b62 e1bd 08de 563e
000000d0: 6b37 243e c0be 153e 3aa4 f13d 0e2d e5bf
000000e0: 497d d33d b757 50bf 4a77 e0bd 0c1a 403e
000000f0: 1d12 62bf b1d2 1cbe 3a91 80be 27bb 8ac0
00000100: a51e 8dc0 260d b53e 55eb 80be 932c adbc
00000110: 8cc1 fe3e ba4b 793d db8f bc3c 0f92 58bf
00000120: 7494 4ebe 5756 ab3d 89e2 8bbf fe02 983e
00000130: 93d4 84bf 1f4a 3f3e 2df5 80bf bf45 ae3d
00000140: 5d62 93c0 dae1 0a3f bd46 87bf e2de 3ebd
00000150: c8b9 d73e 5f15 193e 1d8f 98be b120 a23d
00000160: 1eb1 68be 0f83 04be ec06 94bf 732c c93e
00000170: ebb7 0cbf 19a3 ad3d 2d1b aebf 4656 8a3b
00000180: 0e61 2cc0 e810 b4be 11ad 833f 86a0 9dbf
00000190: 7153 703e 88c9 173d 8a36 b83f 848b cf3d
000001a0: dc0f 60bf 32c2 4fc0 2442 293d 20ab cf3d
000001b0: eea1 d53e f0fe c03d e434 53c0 b800 cfbe
000001c0: 0c54 50c0 0ce0 a73c 3a01 24bf 0fdc 03c0
000001d0: 9b75 8c3e 5cec 343d cca1 533e c251 0c3f
000001e0: 0e36 93be 7310 04c0 9efb ea3b 99d5 e3be
000001f0: c908 dd3e f9ca 3d3d 58b7 4b3d 1f94 28be
00000200: 7772 4fbf 11e3 86bf 740a 373f 2f2f 9dbf
00000210: 29db 833e dbb0 6abe 54b6 b03f aeb1 793e
00000220: 5d1c 96be dd99 41bf cbb9 8bbf d230 95bf
00000230: 150f 403e e52f 34be c8c5 95bc f2e4 133e
00000240: 5777 50bf d9a4 eabe 0642 64c0 1c97 563e
00000250: 94f9 0b3e 9345 363d cfdd c0bf 6730 5dc0
00000260: acf3 6abf a9e2 1f3f d3dc 743f 6554 68be
00000270: 4991 a23e 79ff 47be b1da f0be 0785 353f
00000280: 70a3 d03d e59b 753e eef0 27c0 60e5 00c0
00000290: c4f3 64bc c870 b4bd ca6d febf 2127 b23d
000002a0: 86ff 31bd c05b 4ac0 0460 353e a9ea 94bc
000002b0: b386 393e bf83 82be db81 ee3d 2102 0fc0
000002c0: 4346 7cbf 78a4 39bf 7e8a 07c0 18e0 14be
000002d0: 365f f6be bfbc a5bd a99f 64bf fafb 5a3c
000002e0: 1c1f 86be 6d10 6fbf 73a8 90be c42d ccbc
000002f0: 5cfd 193f 313f 363e 67ab 2d3f df2c 7e3e
00000300: ff6f 8ec0 58a7 4ac0 ed3e 583f 0d29 83bd
00000310: 1594 95bf c103 2f3e fe02 e0be 5162 9cbe
00000320: 8fc5 13bf 41ae 77bf 6318 3e3f 7ff7 83be
00000330: 2855 1c3f 86e3 66be 6a86 a1bf fcca bf3e
00000340: e64c 24c0 a3d5 a6bd 22b5 0abf 51a2 ff3d
00000350: bc29 d5be 22d5 c8bc 66d7 21bf 304c 083f
00000360: 8a49 0d3f a4c5 06c0 84c1 f6be ea84 19c0
00000370: cadc 3cbe 93e8 35be 7b8a 273f 993d d8bf
00000380: 7fcf bfbf 1383 11bf 0cac 253f f599 0cbf
00000390: 3107 8ebf 8301 533e 7935 45c0 e555 3d3f
000003a0: 943f e9bc 27a6 9fbf c712 25bb 4e10 39bf
000003b0: 5bf7 b23e c6f3 a3bd 5026 8bbe ec44 5e3e
000003c0: 163f 31be 8f32 80bd 3454 25c0 3b75 1fbf
000003d0: d08b 323d 370a 79bc ec74 9d3e 3a95 333e
000003e0: d145 953e eb30 2dbf 0cf8 1fc0 77cd 2cbf
000003f0: 3368 4fbe 32d7 ab3d e13b 663f b3a5 b8bf

l3.bias f4 [47]
0.12023109 0.27565876 0.22013018 0.1037078 -0.07146065 0.34662464 -0.03795001 0.15130393
-0.1254817 0.102805935 -0.036609568 -0.13071185 0.40119973 -0.02789665 -0.29780284 -0.14523816
0.16090028 0.06754093 0.014381162 -0.6177638 -0.12097123 -0.19978559 -0.0796282 0.07675418
0.21696535 0.29766977 -0.18503062 -0.40820104 0.13422525 0.20659342 0.44098094 -0.1637949
-0.059846215 -0.4540634 -0.38199216 -0.14038096 -0.45878872 -0.20341769 0.066316366 -0.14012559
-0.011286549 -0.24863857 0.0654364 0.16419783 -0.039750252 0.26043558 0.07247339
00000000: b83b f63d 2523 8d3e ce69 613e c164 d43d
00000010: f659 92bd c978 b13e 7871 1bbd 6bef 1a3e
00000020: 467e 00be eb8b d23d eaf3 15bd 54d9 05be
00000030: 0d6a cd3e 8487 e4bc 9d79 98be 50b9 14be
00000040: 0bc3 243e e652 8a3d f79e 6b3c c525 1ebf
00000050: c4bf f7bd 9894 4cbe 1c14 a3bd 4c31 9d3d
00000060: 2a2c 5e3e 2c68 983e ab78 3dbe baff d0be
00000070: 5872 093e 3a8d 533e 41c8 e13e dab9 27be
00000080: 4e21 75bd ff7a e8be 7a94 c3be 07c0 0fbe
00000090: 5be6 eabe ba4c 50be e0d0 873d 157d 0fbe
000000a0: 38eb 38bc 1c9b 7ebe 8503 863d 7a23 283e
000000b0: 29d1 22bd d057 853e ee6c 943d
